Model: "sequential"
_________________________________________________________________
 Layer (type)                Output Shape              Param #   
=================================================================
 conv3d_1 (Conv3D)           (None, 8, 28, 28, 28)     3008      
                                                                 
 conv3d_2 (Conv3D)           (None, 16, 24, 24, 24)    16016     
                                                                 
 max_pooling3d_1 (MaxPooling  (None, 16, 12, 12, 12)   0         
 3D)                                                             
                                                                 
 dropout_1 (Dropout)         (None, 16, 12, 12, 12)    0         
                                                                 
 conv3d_3 (Conv3D)           (None, 32, 10, 10, 10)    13856     
                                                                 
 conv3d_4 (Conv3D)           (None, 64, 8, 8, 8)       55360     
                                                                 
 dropout_2 (Dropout)         (None, 64, 8, 8, 8)       0         
                                                                 
 flatten_1 (Flatten)         (None, 32768)             0         
                                                                 
 dense_1 (Dense)             (None, 128)               4194432   
                                                                 
 dropout_3 (Dropout)         (None, 128)               0         
                                                                 
 dense_2 (Dense)             (None, 1)                 129       
                                                                 
=================================================================
Total params: 4,282,801
Trainable params: 4,282,801
Non-trainable params: 0
_________________________________________________________________

1/1 [==============================] - ETA: 0s
1/1 [==============================] - 1s 748ms/step
Total score for R1117TS029_1.pdb is  21.155695
…
